…
poch='all', seed=3407, is_train=True, device=device(type='cuda', index=0), save_root='./checkpoints/t2m/group_residual_vqnb1024', model_dir='./checkpoints/t2m/group_residual_vqnb1024/model', meta_dir='./checkpoints/t2m/group_residual_vqnb1024/meta', eval_dir='./checkpoints/t2m/group_residual_vqnb1024/animation', log_dir='./log/vq/t2m/group_residual_vqnb1024', data_root='./dataset/HumanML3D/', motion_dir='./dataset/HumanML3D/new_joint_vecs', text_dir='./dataset/HumanML3D/texts', joints_num=22)
args.vq_arch_option: group_residual_vq
RVQVAE(
  (encoder): Encoder(
    (model): Sequential(
      (0): Conv1d(263, 512, kernel_size=(3,), stride=(1,), padding=(1,))
      (1): ReLU()
      (2): Sequential(
        (0): Conv1d(512, 512, kernel_size=(4,), stride=(2,), padding=(1,))
        (1): Resnet1D(
          (model): Sequential(
            (0): ResConv1DBlock(
              (norm1): Identity()
              (norm2): Identity()
              (activation1): ReLU()
              (activation2): ReLU()
              (conv1): Conv1d(512, 512, kernel_size=(3,), stride=(1,), padding=(9,), dilation=(9,))
              (conv2): Conv1d(512, 512, kernel_size=(1,), stride=(1,))
              (dropout): Dropout(p=0.2, inplace=False)
            )
            (1): ResConv1DBlock(
              (norm1): Identity()
              (norm2): Identity()
              (activation1): ReLU()
              (activation2): ReLU()
              (conv1): Conv1d(512, 512, kernel_size=(3,), stride=(1,), padding=(3,), dilation=(3,))
              (conv2): Conv1d(512, 512, kernel_size=(1,), stride=(1,))
              (dropout): Dropout(p=0.2, inplace=False)
            )
            (2): ResConv1DBlock(
              (norm1): Identity()
              (norm2): Identity()
              (activation1): ReLU()
              (activation2): ReLU()
              (conv1): Conv1d(512, 512, kernel_size=(3,), stride=(1,), padding=(1,))
              (conv2): Conv1d(512, 512, kernel_size=(1,), stride=(1,))
              (dropout): Dropout(p=0.2, inplace=False)
            )
          )
        )
      )
      (3): Sequential(
        (0): Conv1d(512, 512, kernel_size=(4,), stride=(2,), padding=(1,))
        (1): Resnet1D(
          (model): Sequential(
            (0): ResConv1DBlock(
              (norm1): Identity()
              (norm2): Identity()
              (activation1): ReLU()
              (activation2): ReLU()
              (conv1): Conv1d(512, 512, kernel_size=(3,), stride=(1,), padding=(9,), dilation=(9,))
              (conv2): Conv1d(512, 512, kernel_size=(1,), stride=(1,))
              (dropout): Dropout(p=0.2, inplace=False)
            )
            (1): ResConv1DBlock(
              (norm1): Identity()
              (norm2): Identity()
              (activation1): ReLU()
              (activation2): ReLU()
              (conv1): Conv1d(512, 512, kernel_size=(3,), stride=(1,), padding=(3,), dilation=(3,))
              (conv2): Conv1d(512, 512, kernel_size=(1,), stride=(1,))
              (dropout): Dropout(p=0.2, inplace=False)
            )
            (2): ResConv1DBlock(
              (norm1): Identity()
              (norm2): Identity()
              (activation1): ReLU()
              (activation2): ReLU()
              (conv1): Conv1d(512, 512, kernel_size=(3,), stride=(1,), padding=(1,))
              (conv2): Conv1d(512, 512, kernel_size=(1,), stride=(1,))
              (dropout): Dropout(p=0.2, inplace=False)
            )
          )
        )
      )
      (4): Conv1d(512, 512, kernel_size=(3,), stride=(1,), padding=(1,))
    )
  )
  (decoder): Decoder(
    (model): Sequential(
      (0): Conv1d(512, 512, kernel_size=(3,), stride=(1,), padding=(1,))
      (1): ReLU()
      (2): Sequential(
        (0): Resnet1D(
          (model): Sequential(
            (0): ResConv1DBlock(
              (norm1): Identity()
              (norm2): Identity()
              (activation1): ReLU()
              (activation2): ReLU()
              (conv1): Conv1d(512, 512, kernel_size=(3,), stride=(1,), padding=(9,), dilation=(9,))
              (conv2): Conv1d(512, 512, kernel_size=(1,), stride=(1,))
              (dropout): Dropout(p=0.2, inplace=False)
            )
            (1): ResConv1DBlock(
              (norm1): Identity()
              (norm2): Identity()
              (activation1): ReLU()
              (activation2): ReLU()
              (conv1): Conv1d(512, 512, kernel_size=(3,), stride=(1,), padding=(3,), dilation=(3,))
              (conv2): Conv1d(512, 512, kernel_size=(1,), stride=(1,))
              (dropout): Dropout(p=0.2, inplace=False)
            )
            (2): ResConv1DBlock(
              (norm1): Identity()
              (norm2): Identity()
              (activation1): ReLU()
              (activation2): ReLU()
              (conv1): Conv1d(512, 512, kernel_size=(3,), stride=(1,), padding=(1,))
              (conv2): Conv1d(512, 512, kernel_size=(1,), stride=(1,))
              (dropout): Dropout(p=0.2, inplace=False)
            )
          )
        )
        (1): Upsample(scale_factor=2.0, mode='nearest')
        (2): Conv1d(512, 512, kernel_size=(3,), stride=(1,), padding=(1,))
      )
      (3): Sequential(
        (0): Resnet1D(
          (model): Sequential(
            (0): ResConv1DBlock(
              (norm1): Identity()
              (norm2): Identity()
              (activation1): ReLU()
              (activation2): ReLU()
              (conv1): Conv1d(512, 512, kernel_size=(3,), stride=(1,), padding=(9,), dilation=(9,))
              (conv2): Conv1d(512, 512, kernel_size=(1,), stride=(1,))
              (dropout): Dropout(p=0.2, inplace=False)
            )
            (1): ResConv1DBlock(
              (norm1): Identity()
              (norm2): Identity()
              (activation1): ReLU()
              (activation2): ReLU()
              (conv1): Conv1d(512, 512, kernel_size=(3,), stride=(1,), padding=(3,), dilation=(3,))
              (conv2): Conv1d(512, 512, kernel_size=(1,), stride=(1,))
              (dropout): Dropout(p=0.2, inplace=False)
            )
            (2): ResConv1DBlock(
              (norm1): Identity()
              (norm2): Identity()
              (activation1): ReLU()
              (activation2): ReLU()
              (conv1): Conv1d(512, 512, kernel_size=(3,), stride=(1,), padding=(1,))
              (conv2): Conv1d(512, 512, kernel_size=(1,), stride=(1,))
              (dropout): Dropout(p=0.2, inplace=False)
            )
          )
        )
        (1): Upsample(scale_factor=2.0, mode='nearest')
        (2): Conv1d(512, 512, kernel_size=(3,), stride=(1,), padding=(1,))
      )
      (4): Conv1d(512, 512, kernel_size=(3,), stride=(1,), padding=(1,))
      (5): ReLU()
      (6): Conv1d(512, 263, kernel_size=(3,), stride=(1,), padding=(1,))
    )
  )
  (quantizer): GroupedResidualVQ(
    (rvqs): ModuleList(
      (0-1): 2 x ResidualVQ(
        (project_in): Identity()
        (project_out): Identity()
        (layers): ModuleList(
          (0-7): 8 x VectorQuantize(
            (project_in): Identity()
            (project_out): Identity()
            (_codebook): EuclideanCodebook()
…
